network/results/mnist_cnn.pt (torch, 190453 bytes, 16 tensors)

conv1.weight f4 [10, 1, 5, 5]
00000000: 1d7c e03d c879 2c3e cb29 37be 4880 3cbe
00000010: b30c e93d a173 23be 1ed0 4fbe 461f 69be
00000020: b397 5d3d 954a 1a3e bf8b adbd b322 57be
00000030: 219c 6f3d 550c 173d c0b2 023e 5be8 da3c
00000040: b2d3 523e 53c5 653e e84b 0637 852f 853e
00000050: e1f4 903e b456 97bd 2c81 863e 313c d53c
00000060: 85e3 263d 4a6d 90bd 5ec4 8b3e 30c8 2e3e
00000070: fc6b babd aabb a83d 0987 1d3e 6df5 aa3e
00000080: ea55 953e 2912 f4bd 7eff 8bbe bd1b 973e
00000090: af5f b63e 74a6 503c 6806 1b3e 0306 633e
000000a0: 1da3 59bd acf8 063e 5fde c13e c700 e03d
000000b0: 63bc 993e 7964 363a 0ee5 873c f35b 653e
000000c0: 91e9 a13e 92ea 8c3e 715f d9bc 5b9c 3c3e
000000d0: f143 1ebe 94bb 493d 951c 30be a767 ab3c
000000e0: 8031 dabd 280c 5cbe 06b9 fcbd 9a73 18be
000000f0: 0461 08be 4032 4abe 1acc 3fbe 42cc b0bd
00000100: 6921 eabd 73bb 3d3e 0aeb 13be 352d e9bd
00000110: a0e7 183e d207 223e 3f9d e0bd de18 11be
00000120: 7c46 93bd 3d48 243e e2fa eebd 24cc 86bd
00000130: 27d8 cb3d 076c 07be ffdc 2e3c ecb7 0b3e
00000140: 54aa d2bd d484 e4bd d58b b2bd 4da2 853d
00000150: d72c 303e fa29 77be 4bd2 f53d 43ea b5bd
00000160: 2e10 e53d 8720 943e a278 31be d431 1dbe
00000170: c1f6 c0bc 8d60 3f3e db95 613e d06e 19be
00000180: e546 463d 81cb 6b3c 7a8f 6a3e da62 d43c
00000190: 1b06 163e 0db1 563d bf15 11be fe67 1dbe
000001a0: 0bc8 0b3e f7f9 c03d 5939 7fbe 6810 1e3e
000001b0: 4567 b6bd 3965 65bd 479b 4dbe 9d54 15be
000001c0: fe59 403e 7da5 1e3e 2996 54be 25a9 8b3e
000001d0: 1b50 153e b131 243e 149f 1f3e 9dbc 383d
000001e0: dda2 4c3e c3ad 363e b51c be3e 7d6f 5f3e
000001f0: 0c5e 773e 821d 1d3d 8d56 81bc 72b1 0a3d
00000200: a330 3b3e c126 2b3e 9337 383e 34f7 083e
00000210: 5c7b 083e c546 aa3d 026d 9c3e f97c 763e
00000220: 51a4 25bd 7272 05bd c1be 5bbd 9bb8 373e
00000230: 79d0 ac3d fd06 633e ddd2 053e 4627 62be
00000240: 7813 f2bd 6adc eb3d 2aaf 60be e3b8 c83d
00000250: 87a0 30be 6458 033d cace 5cbe 0bf7 713e
00000260: 1d14 a83e 7f67 463e d687 433e 5da1 483e
00000270: 5afe c93d d0a9 b43e 6cec 843e 83c7 123e
00000280: 5458 95bd a88b 673e 2dfe b83e fbed b53c
00000290: 9f53 12be c71f 353e d264 9f3e cc1b 7d3e
000002a0: 2ee1 1ebe 2b89 87be eaf4 d7bd a68e 763e
000002b0: e6f2 bf3b 405a 5f3c d40b b6bd 2091 0abd
000002c0: e50a 013e 324e 0b3b bf52 29be fe70 e3bd
000002d0: 36ce 53be 4c6c 043e 68fd 953d d246 1dbd
000002e0: b4ff d9bd cc9c a63d a9d3 39be 99d2 84bb
000002f0: c3bb 3d3e 7204 86bc a471 6fbd ac68 7d3e
00000300: 3d83 89bc b9fe 9c3e 244d 323e fed0 793e
00000310: ecf0 a53d 7a13 683e 8afe 313e 5131 ce3d
00000320: bf45 673e 96cb 883e 7203 f83d f8f1 df3d
00000330: ef01 bebd 835d d83d d681 653e 2229 e43d
00000340: 96e1 87bd 4540 c4bd 69ac d7bd b7f4 643c
00000350: a527 8a3d 0a8a 93bd d080 20be 71cf e23d
00000360: 82a0 b03c 44d9 b03d b8e1 283e 6d79 34be
00000370: fef9 d13d 776d 063e 7cf1 1abe 9455 62bd
00000380: e1f9 103e 253a 6c3e 8188 173e 2d42 3bbd
00000390: cf8d 9e3d 8f73 223e 9bbf eb3d 5bef 453d
000003a0: 1d0a 5c3e 7952 4e3e 2d37 00bc b175 33be
000003b0: 10f0 48be 5836 15be 8721 34bd 590d 0dbe
000003c0: ef46 4cbe b7a3 2e3e cd7e 073e 0af4 da3d
000003d0: b4a6 fa3d 02ac 013e 2cac 29be 1973 ab3d
000003e0: e4fe 153e 7164 5e3e
0.10961173 0.16843331 -0.17887037 -0.1840831 0.11379375 -0.15962078 -0.20294234 -0.22765836
0.05409975 0.15067513 -0.0847392 -0.2100933 0.058498506 0.036876995 0.127635 0.026722124
0.20588568 0.22438554 8.004696e-06 0.26012817 0.28311828 -0.07389584 0.26270425 0.026029678
0.040744323 -0.07052095 0.27298254 0.17068553 -0.09102628 0.08238919 0.15383543 0.3339037
0.2916711 -0.11917526 -0.27343363 0.2951335 0.35619876 0.012734998 0.15139163 0.22170262
-0.053134073 0.13180798 0.37864968 0.10937648 0.3002654 0.00069577206 0.016588714 0.22398357
0.3162351 0.27522713 -0.026534768 0.1841902 -0.15455605 0.049251154 -0.17198403 0.020923449
-0.106539726 -0.21489012 -0.12339978 -0.14887848 -0.13318259 -0.19745731 -0.18730202 -0.08632709
-0.11432154 0.18528537 -0.14445129 -0.11385576 0.14932108 0.15823296 -0.10967492 -0.14169642
-0.07191178 0.16043182 -0.11668946 -0.065819055 0.09953337 -0.13224803 0.010672807 0.1364438
-0.10286394 -0.111581475 -0.08718077 0.06525097 0.17204605 -0.24137107 0.12003001 -0.088825725
0.11184727 0.28931066 -0.17331174 -0.15351039 -0.023555161 0.18689175 0.22029822 -0.14983678
0.048407454 0.014391781 0.22906294 0.025926042 0.14650767 0.052414943 -0.14168452 -0.15371701
0.13650529 0.09422677 -0.2492422 0.15435946 -0.08906416 -0.056004737 -0.20078765 -0.14583059
0.1878433 0.15492816 -0.20760407 0.27277485 0.14581339 0.16034581 0.15588027 0.04510175
0.19984002 0.17839722 0.37131277 0.21819873 0.2415697 0.03835822 -0.015788341 0.03386063
0.18280272 0.16714002 0.1798995 0.1337555 0.13328308 0.083142795 0.30551916 0.24071111
-0.040439907 -0.032579847 -0.053648714 0.17941515 0.084382005 0.22170635 0.13068719 -0.22085294
-0.118201196 0.1151665 -0.2194182 0.09800889 -0.17248736 0.032066718 -0.21563259 0.23629396
0.32827845 0.19375418 0.19094786 0.19592805 0.09862967 0.35285807 0.25961626 0.1433392
-0.07292238 0.22611868 0.3613142 0.022208204 -0.14289711 0.17687903 0.31131607 0.24717635
-0.15515587 -0.26471838 -0.105447605 0.24077854 0.005857813 0.013632357 -0.08888975 -0.03382981
0.12601812 0.0021256325 -0.16535471 -0.11105536 -0.20684132 0.12931937 0.07323724 -0.038397618
-0.106444746 0.081353754 -0.18147148 -0.0040534255 0.18528657 -0.016359542 -0.058457986 0.2474696
-0.016786212 0.30663088 0.1741224 0.2439613 0.08102593 0.2266368 0.17382255 0.10068
0.225852 0.26717824 0.12110032 0.10934824 -0.092777126 0.10564711 0.2241281 0.11140658
-0.06634824 -0.09582571 -0.105309315 0.01397436 0.06745843 -0.07204063 -0.15674138 0.110747226
0.021560911 0.0863519 0.16492355 -0.17624445 0.1025276 0.13127695 -0.15131181 -0.055257395
0.14157821 0.23069055 0.14798166 -0.045717407 0.077418916 0.15864395 0.11511155 0.04832397
0.21488233 0.20148648 -0.007825655 -0.17525364 -0.19622827 -0.14571512 -0.043977287 -0.13774623
-0.19948934 0.1705464 0.13231964 0.10691078 0.12238827 0.12663272 -0.16569585 0.083715625
0.14648014 0.21718003

conv1.bias f4 [10]
00000000: c148 9ebd b28a fa3c e9af 1bbe f479 52bd
00000010: 463c 2c3e 7588 b0bd a350 c6bb 16e2 3a3e
00000020: cd60 8dbd e51a 80bd
-0.077287205 0.030583713 -0.15203823 -0.051385835 0.16819867 -0.08619777 -0.006052093 0.18250307
-0.06903229 -0.0625513

conv2.weight f4 [20, 10, 5, 5]
00000000: 8074 a13c c8aa 6dbd 03ae c6bb f2ee d7bc
00000010: e0be 46bd 5d32 a73b 12a9 503c 2eaf 70bd
00000020: 3475 363c 6528 15bd 35f1 26bd 284f 02bd
00000030: 9ce7 a8bc e118 6c3c 90af 73bd 09fa 243c
00000040: 459e bf3c b3ca 583d 3f6b 3c3c c6a1 3d3d
00000050: ff83 46bd 4993 15bd 13dd 4d3d 3ab2 15bd
00000060: 4852 d3bc ccd7 133c 8920 0c3d efb7 74bd
00000070: 03c4 82bd 6052 74bc 4d3e 023d dba9 8bbc
00000080: d4ea c8bc 5e56 4d3d b903 c5bc 23dc 573d
00000090: a39d 1b3d 0e8f 52bd 4aa5 0dbd c02d 243d
000000a0: 90e5 16bd 00fe fdbc f951 e3bc 9059 0fbd
000000b0: 322b 03bd d085 583c d4ca a1bc 24a8 9f3c
000000c0: f655 82bd c48a 07bd a579 553d c38d 573d
000000d0: 3747 4a3d b22a 7a3d 1808 063a 2b75 5fbd
000000e0: 7dfc c63c bba6 553d 1dee 743d 48d5 18bd
000000f0: 792b 35bc 2342 5fbd 498a 7abd ef98 1ebd
00000100: c8d0 8d3c eb35 e23c c63a 4f3d 94d7 2dbd
00000110: 3d7f cdbb c9b8 1fbb 6c24 03bd 5381 13bd
00000120: 43dc edbc f23b 04bd e2e2 3a3b 507b 5ebc
00000130: 69ee a53c bbdb c73c 3d42 5b3d 4fd3 403d
00000140: 8c1d 3bbd 2098 0dbc 919d 28bd 5ccf 693d
00000150: a93e 633d db6f 30bd 1176 22bd 6eae 3b3c
00000160: 2faf 0bbd 6d36 ba3c db71 313c 282a 523c
00000170: 8d83 57bd 27b2 6ebc f2c0 07bd 7536 523d
00000180: b485 a0bc 78a6 0fbb 280b c3bb 9980 e4bb
00000190: ca6b 5b3d a415 253d e4ec 5ebc d287 72bd
000001a0: d8a7 75bd e7eb 6dbc 4937 bc3c aab4 7cbd
000001b0: 5e89 5cbc e468 8dbc 6d03 d63c e800 89bc
000001c0: b2cb 75bc 68e8 cd3b 984e 0dbd 7a64 5e3d
000001d0: fd37 40bc 25e2 183d 0dc0 4e3c 15c8 c9bb
000001e0: abc9 06bd 0c18 09bd 87fd c43c 0add 003d
000001f0: e8cd b93c b432 a4bb 0997 82bc 701b 513c
00000200: 8b2a 483d 436f 153c 27b8 d5bb bf3a aebc
00000210: b500 28bd 6cfa 72bc ca25 633d 852e 81bd
00000220: 7f74 e13c 5d24 84bc 0287 81bd 5e6a 783d
00000230: 3004 363d 6c8f adbb 670f 41bd 982f 1a3c
00000240: 1f11 cf3c a4f2 4ebd cdbb 683d 667a 1fbc
00000250: 858e 80bd 240d 84bc f653 bc3c 4e4e 64bb
00000260: 5179 483d 6806 09bd 81cb 8c3c a734 42bd
00000270: fe85 18bc 6bd0 273d 522d 4d3d 5fd5 60bd
00000280: ff55 0fbd fd2a 10bd 8063 3b3d d73a 8b3c
00000290: 1eb6 73bc d120 51bd 7053 bf3c 166c b3bb
000002a0: 489c 5f3d 3091 513d 1a0c 76bd b254 3bbd
000002b0: 2a62 01bc d94c b53c fb26 933c 8112 f0bc
000002c0: 89e7 c43c 7333 b1bc df07 afbc 54b7 2f3d
000002d0: fe65 6bbd a70e 97bc efef 333d fa5a 6fbd
000002e0: 9ffb 4dbd 7fb9 1e3c e86f 0abd 0e03 57bd
000002f0: fc40 f9bb e699 503d d07a 303c 1276 32bd
00000300: 3c0b 64bc d123 1f3d e536 2c3d 25d6 ff3c
00000310: 9572 4fbd 73b8 fc3b a047 eb39 9d71 3cbc
00000320: 024f 75bd e55e 8a3b 8316 193b cdc0 9d3b
00000330: 59df 063d 4329 043c d16b 79bd 56c3 273d
00000340: 111b 1dbd cf20 3b3d 8f3b 83bd b6ca 0dbd
00000350: ae83 31bd ba22 073d 786b 16bd d156 2c3d
00000360: 9e6f be3c 6bef 523b 51ed fbbc 8b67 6abd
00000370: ebf0 523d 38fc 1f3d ef67 a8bb 3edc 53bc
00000380: 046d fdbc bc1b adbc a3ff 4dbd 59e8 f7bc
00000390: 1844 56bd 88ac 6fbd 4d50 9b3c 0a6f 3cbd
000003a0: b6a6 2a3b f4bf 083d 3811 9fba 53af 3ebd
000003b0: 8527 50bc b876 63bc 907f 223d bd0d 4a3b
000003c0: f2f9 d5bc e35c b03b 1b48 e1bc a393 febc
000003d0: 3125 4cbd e7fb fbbc 5a91 323d cd1a 083d
000003e0: c050 bfbb 69ce 253d 3352 3a3d 43d0 46bd
000003f0: 660b 10bd 28d5 993d 4ef4 b13d dec8 bbbc
0.019708872 -0.058024198 -0.0060632243 -0.026359055 -0.048521876 0.0051024393 0.012735622 -0.058760814
0.011136342 -0.036415476 -0.040757377 -0.03181377 -0.020618252 0.0144102285 -0.0594936 0.010069379
0.023390898 0.052927684 0.011500179 0.046296857 -0.048465725 -0.036517415 0.05025966 -0.036546923
-0.02579607 0.009023618 0.034210715 -0.059745725 -0.063850425 -0.014912218 0.031797696 -0.017048767
-0.024526037 0.050131194 -0.024049627 0.052700173 0.03799213 -0.05140596 -0.03458146 0.040082693
-0.03684002 -0.031004906 -0.027749049 -0.034997523 -0.032023616 0.013215497 -0.019750036 0.019489355
-0.06364052 -0.03309132 0.052117962 0.05262543 0.049384322 0.061075874 0.00051129004 -0.0545551
0.024290318 0.05216096 0.059797395 -0.037312776 -0.011057728 -0.054506432 -0.061167035 -0.038720068
0.017311469 0.0276136 0.05059316 -0.04244192 -0.0062712715 -0.0024371615 -0.032017156 -0.036012005
-0.029035693 -0.03228373 0.002851658 -0.013579205 0.020255284 0.024396768 0.053529967 0.04707652
-0.045682475 -0.008642226 -0.041165892 0.05708252 0.05547968 -0.043075424 -0.03966338 0.0114551615
-0.034102615 0.02273103 0.010830368 0.012827434 -0.05261569 -0.014568842 -0.03314299 0.051321466
-0.019595005 -0.0021919291 -0.0059522577 -0.006973338 0.053569593 0.04030384 -0.013606284 -0.05921156
-0.05997452 -0.0145215755 0.02297558 -0.061695732 -0.013460485 -0.01726193 0.02612468 -0.016724065
-0.015002178 0.0062838085 -0.03449878 0.05429504 -0.011732099 0.037325043 0.012619031 -0.006157885
-0.03290717 -0.0334702 0.024046673 0.0314608 0.022681192 -0.005010927 -0.01594116 0.012762889
0.048868697 0.009120765 -0.006522197 -0.021268247 -0.0410163 -0.014830213 0.05545596 -0.06307701
0.02752137 -0.01613062 -0.06324579 0.060648315 0.044437587 -0.0052966382 -0.04713383 0.009410761
0.025276719 -0.05052437 0.056819726 -0.009733772 -0.062771834 -0.016119547 0.022989254 -0.0034836712
0.04894382 -0.033453375 0.017186882 -0.047413494 -0.00930929 0.040970247 0.05009205 -0.054890987
-0.03499412 -0.035197247 0.045749187 0.01699583 -0.014874963 -0.051056687 0.023355216 -0.0054755313
0.0545924 0.051163852 -0.060070135 -0.04573507 -0.007896939 0.02213137 0.017962923 -0.029305698
0.024036186 -0.021630978 -0.021366058 0.042899445 -0.057470314 -0.018439604 0.04392999 -0.05843637
-0.050288793 0.00968778 -0.03379813 -0.052493148 -0.0076066237 0.05092802 0.010771468 -0.043569632
-0.013918694 0.038852517 0.04204454 0.031230042 -0.050646383 0.0077124177 0.00044876058 -0.011501697
-0.0598898 0.004222738 0.0023359365 0.0048142434 0.032927845 0.008066478 -0.060893837 0.04095777
-0.03835589 0.045685586 -0.06407844 -0.03461715 -0.04333847 0.032992102 -0.036723584 0.042074982
0.023246583 0.0032186161 -0.03075281 -0.057227653 0.05149929 0.039058894 -0.005139343 -0.012930928
-0.030935772 -0.021131389 -0.050292622 -0.03026216 -0.052311033 -0.058514148 0.018959189 -0.046004333
0.002603931 0.033386186 -0.0012135869 -0.04655392 -0.012704735 -0.013883285 0.039672434 0.0030830943
-0.02612016 0.0053821667 -0.027500203 -0.031076258 -0.049840156 -0.030759765 0.04359565 0.033228684
-0.0058384836 0.04048005 0.045488548 -0.048538458 -0.03516712 0.075113595 0.086891755 -0.02292293

conv2.bias f4 [20]
00000000: cdc2 2d3c 0dff 68bd c581 10bc 9652 ea3c
00000010: 802a 5a3d d684 913c 665b 0b3d 6fe5 813b
00000020: 452e acbc 61f0 2e3d 761d e4ba f946 4bbd
00000030: 3ed6 483d 296a bc3c 0f01 d9bc c4be efbc
00000040: 78d2 0f3c 5062 acbc 6acc cc3c e641 06bd
0.010605526 -0.05688386 -0.008820002 0.028603833 0.053263187 0.017763536 0.03402271 0.003964118
-0.021018157 0.042709712 -0.00174038 -0.04962823 0.049032442 0.02299984 -0.026489763 -0.029265769
0.008778207 -0.021042973 0.024999816 -0.03277769

fc1.weight f4 [50, 320]
00000000: 205f ccbc 9ea9 003d 78ee 5d3c 003c df3a
00000010: 7197 0dbb b660 15bd 0121 8d3c a9f2 e63c
00000020: 5d22 b83c 1dd5 f3bc e48d f4bc b230 563c
00000030: cd72 673d 929a 10bd e3c9 1b3c bfc0 0a3c
00000040: b0f0 5b3b 84cf 033d 0a40 e3bc e6b3 ed3c
00000050: cf6e 37bd c938 293b 8140 4a3a 239b 0ebd
00000060: 475b 00bd a4c2 5d3d 7a2e 603d bcf4 9f3c
00000070: fa4d 143c a83f e23c 39aa 3cbb ab9c 46bd
00000080: ad79 1e3b 0876 0ebd db4e 23bc 73cb 07bd
00000090: 6e95 27bc 8817 583c 6b69 b93b 32e4 fdbc
000000a0: 58c7 06bd 4c03 033d 4912 813b 98aa 173d
000000b0: facf 9f3c e384 5cbd 3ef2 073d c7ba 8a3b
000000c0: 89c4 053d a1ce c23c a8b0 e23c 3c30 183d
000000d0: 5cbd 893c a092 62bd f751 033c 571b cc3c
000000e0: 6d89 103d cac0 d93c 57d7 173b 5886 eabc
000000f0: e237 353d e1b2 58bd a5e1 28bd 04b6 153c
00000100: 6f09 123d cd93 65bc 6b4b b7bc 86a4 e8bc
00000110: c7aa 5e3d 3ab3 c0bc 756c 3b3d d4cf c3bc
00000120: 72bf 54bc 7368 5cbd 9281 0d3d 861c a6bc
00000130: 5356 eebc 80d5 f3bb 3623 0bbc 5c3b a63c
00000140: 2947 233c 38eb 29bb 04f3 8e3b e1b2 d5bb
00000150: f08f 20bc 1167 15bd 7f5f ba3b d0e3 71ba
00000160: b738 0d3d 2a65 f53c 8d84 69bd 41fe f23b
00000170: 5015 28bd 91c7 d7bc bcf7 28bc 7323 41bd
00000180: fbe3 22bc da62 47bc 5c28 31bd 9890 dc3c
00000190: bcda 60bd 2901 aebc 9777 28bd f9fa 2d3c
000001a0: 8171 0bbc 7be6 b63c 79ce 763d 38b8 ab3c
000001b0: 0ac7 c4bc ef5c 4bbd 859f cfbc 1eab 54bb
000001c0: 4d45 d83b 8601 1dbd 8e3d 303d aea5 63bc
000001d0: d546 c7bc 5143 613d fcca 28bb 32d4 833b
000001e0: 209e d73c 6724 4fbc f322 24bd 1bd5 a4bc
000001f0: 6157 d4bc 2eca bdbc 5884 72bd ff74 193d
00000200: 2bcb 593c 87fd 16bd 4c7e 9dbb 8217 1cbb
00000210: fb0e 1bbd a3b4 5abd 9322 60bc 56a4 48bd
00000220: 82cd 383c ba2d 303c 7241 0f3d 4177 543a
00000230: f663 133d 2802 043d ec93 aebc 7fea bb3c
00000240: a82e 05bc 88c4 d5bb f275 9bbc 5114 cb3c
00000250: a60b 3bbd be00 8a3c 18e6 00bd e6b4 bebb
00000260: 1f14 8e3c a0ba 11bd 2f29 15bd cd77 563c
00000270: a1cf 87bc c8e1 973b 87fb 4bbc 00ca 103d
00000280: ebe9 43bd dd20 3cbd 733a fc3b 0836 00bd
00000290: f223 0e3d 28db b33b bb67 d93c ecac d13c
000002a0: f0cd fabc 4370 48bd 43ce 8bbb 1136 4bbc
000002b0: a484 af3b 48c5 a23c 71b5 e53c 1d9e 2abd
000002c0: b8a9 183d 26ef 963c 4806 143d 9bac a43c
000002d0: 8873 323c 6f08 3dbd f5ca ea3c fe5b 3a3d
000002e0: 93b4 0cbd cfc5 2bbd e51d 043d 10d2 0fbd
000002f0: e25c 1fbb b836 ceba 5a2c f43c 623b 303d
00000300: f988 a73c 4d36 8fbc 2d21 093d 019f 83bd
00000310: 3a89 41bd f265 42bc 817a e73c fb91 d6bc
00000320: b34e 14bd 34e1 c4bc 3207 3cbc 9f2e 3cbb
00000330: 1f92 c63c af06 363d b8dc 36bd 0f5d 803d
00000340: 18c0 283d 5410 cfb8 1aa8 15bd 1d73 25bd
00000350: eca3 fb3c 05ad 5f3c c118 da3c 1fbe 5ebd
00000360: cf9b 723b 7065 27bd 677d 12ba 0380 943c
00000370: ce1d 4e3d 2981 6d3c a3e1 5739 f83a 9d3c
00000380: ad64 c03c fada fd3c 8920 c13b caf2 0b3d
00000390: d1d5 053d 2ce4 9d3c 56ba 2f3a a957 e93c
000003a0: 9ec7 08bc a3e8 ccbc d1de 63bd 39f6 4f3c
000003b0: 919c f7bc dfda 89bc ed57 3cbd 8c4a 133d
000003c0: bf4d 393d a685 db3c 7068 4b3c 0503 303c
000003d0: 1761 2cbc 0b59 babb be9b fd3c b641 9bbc
000003e0: f4e1 11bc cd7d 23bd 915a 113c 8100 f7bc
000003f0: 7bfc ff3c 53e2 4dbd 4ea6 16bd 186f 1dbc
-0.024947703 0.03141176 0.013545625 0.0017031431 -0.0021605159 -0.036469184 0.017227652 0.028191881
0.022477323 -0.029764706 -0.029852815 0.013073133 0.056505967 -0.03530366 0.009508583 0.008468806
0.003356021 0.032180324 -0.027740497 0.029016446 -0.04478341 0.00258212 0.00077153003 -0.03481592
-0.03133705 0.054140702 0.054731824 0.019525878 0.009051794 0.027618244 -0.0028787984 -0.048489254
0.002418141 -0.034780532 -0.009967531 -0.03315301 -0.010228498 0.013189204 0.0056583188 -0.030992601
-0.032904953 0.031985566 0.0039389473 0.037027925 0.01950835 -0.05383767 0.033190005 0.0042336914
0.032658134 0.023780169 0.027672127 0.037155375 0.016813926 -0.055315614 0.008015147 0.02491538
0.03528731 0.026581187 0.0023169124 -0.028628513 0.044242747 -0.052904967 -0.041230816 0.009137634
0.035653528 -0.014012289 -0.02237483 -0.028398763 0.054362085 -0.023522962 0.04575773 -0.023902811
-0.012985097 -0.053810548 0.034547396 -0.020277273 -0.029093897 -0.0074412227 -0.008492282 0.020291977
0.009965696 -0.0025927555 0.004362466 -0.006521568 -0.009799942 -0.036475245 0.0056876536 -0.0009227367
0.034477916 0.029955465 -0.057011176 0.0074155633 -0.04103595 -0.026340278 -0.010312971 -0.047152948
-0.00994205 -0.012169564 -0.04325138 0.026924416 -0.0548961 -0.021240788 -0.041129675 0.010618919
-0.008510948 0.022326699 0.0602555 0.020961866 -0.02402069 -0.049649175 -0.02534462 -0.0032450627
0.006600058 -0.03833153 0.043027453 -0.013894482 -0.024325768 0.05499584 -0.0025755754 0.0040230984
0.026320517 -0.012642956 -0.040072393 -0.020121148 -0.025920572 -0.023167696 -0.059208244 0.03746509
0.013293068 -0.036862876 -0.0048063155 -0.0023817723 -0.037856083 -0.053394925 -0.013680118 -0.048984848
0.011279466 0.01075309 0.034974523 0.00081049284 0.035984002 0.03222862 -0.021310769 0.022938965
-0.0081287995 -0.0065236725 -0.01897714 0.024789961 -0.045665406 0.016846057 -0.031469434 -0.0058199046
0.017343579 -0.03557837 -0.03641623 0.013090086 -0.016578497 0.0046350695 -0.0124501055 0.035348892
-0.047830503 -0.04592978 0.0076973974 -0.03130153 0.03470225 0.005488772 0.02653872 0.02559515
-0.030615777 -0.048935186 -0.0042665317 -0.012403027 0.005356388 0.019869462 0.02804062 -0.041654695
0.03727123 0.018424582 0.036138803 0.020101836 0.010891803 -0.04615062 0.02866123 0.045497887
-0.034351896 -0.04193669 0.032255072 -0.03511244 -0.0024316837 -0.001573286 0.029806305 0.043025382
0.020451056 -0.017481947 0.033478905 -0.06426812 -0.04725001 -0.011865126 0.028256657 -0.026192656
-0.036207866 -0.024033166 -0.011476325 -0.0028714312 0.024239598 0.044439968 -0.044644088 0.062677495
0.04119882 -9.8735705e-05 -0.036537267 -0.040392984 0.030717812 0.013652091 0.026623132 -0.054380532
0.0037019139 -0.040868223 -0.00055881444 0.018127447 0.050321393 0.014496126 0.00020588054 0.019193158
0.023485506 0.030988205 0.005893771 0.03416709 0.032674614 0.01927384 0.00067034864 0.028484182
-0.008348374 -0.025013274 -0.055632416 0.012692981 -0.030226024 -0.016827999 -0.04598229 0.035959765
0.04524016 0.026797127 0.012415037 0.010742907 -0.010521195 -0.0056868843 0.030958053 -0.018952232
-0.008903969 -0.039914895 0.00887169 -0.030151607 0.031248322 -0.050264668 -0.036779694 -0.009609006

fc1.bias f4 [50]
00000000: a6d8 c5bc a92e e63c 49d2 5bbd 2d2e ed3c
00000010: 8cd0 2c3b c803 3ebb bb77 b6ba 0ed4 ac3c
00000020: 63f3 bfbc ce27 6bbd e815 24bc ed69 0dbd
00000030: ed77 313c de61 583d 0e44 83bb e13a 4abd
00000040: 77d5 f93c 3863 463d c95b 52bc 065f 0bbd
00000050: 1fc7 49bd 2c20 ca3c c17f e73c 6c49 913c
00000060: 209f 0cbc c271 7ebc bd50 5fbd 656a 0cbd
00000070: 49d6 0bbd 41b2 343c 22bc 1dbd 6b50 f33c
00000080: eef1 453c 3a9a df3c cc3d 8c3c 203f 2d3d
00000090: 3d6d 10bd 3385 5ebb 4e48 ccbc e053 07bd
000000a0: e112 ef3c 280a bab9 5dc6 c0bc 61ac 00bd
000000b0: 2811 593d 9e5b 273d 7004 ddbc 33ef 233d
000000c0: ba77 553d fc2e 3c3d
-0.024151158 0.028098421 -0.05366734 0.028952682 0.002636942 -0.0028993953 -0.001392118 0.02109721
-0.023431486 -0.057411008 -0.0100149885 -0.034524847 0.010831815 0.05282771 -0.0040059155 -0.049372558
0.030497296 0.048434466 -0.012839266 -0.03402617 -0.049262162 0.024673544 0.02825916 0.017735206
-0.00858286 -0.015530052 -0.054520357 -0.034281153 -0.034139905 0.011028827 -0.038509496 0.029701432
0.012081606 0.02729522 0.01711931 0.04229653 -0.035260428 -0.0033953905 -0.024936821 -0.033038974
0.029183807 -0.00035484252 -0.023532087 -0.031414393 0.052994877 0.040858857 -0.026979655 0.04002304
0.052116133 0.045943245

fc2.weight f4 [10, 50]
00000000: b6f8 053d 3aa5 4b3e c613 7bbd e08a f33d
00000010: 9571 913d 5ac5 733c 9a8f e9bc 97ca 53be
00000020: b4d9 d8bd 1680 33bd 19e9 5cbe 7bdf 133e
00000030: 07e8 3fbd 1bfc a0bd 7f2d 9f3d 204c cfbd
00000040: 0a99 003e 7210 f33c 5706 c2bd fc59 173c
00000050: c0ed 1e3e b9f6 20be 22c6 3fbe 8679 80bc
00000060: 1eab 62be cd61 153e 4f49 c6bd 956d 28be
00000070: 9d0e 213e ffde f93c dd53 993d 032d 8c3e
00000080: 81bc 333e 7a59 323e fb93 7d3e 8491 ba3d
00000090: 062c 50be 4b2b 233e f0f3 9bbd 5ac7 d5bd
000000a0: bc1b 543d 827e 6fbe 2433 1dbe 7273 10be
000000b0: 826f e63b 5f2e 5bbd 1ac2 c2bd 7dfd d1bd
000000c0: 7644 96bd 1996 1cbe 16cf cb3d bd8c d6bc
000000d0: 4a47 e5bd 6828 78bd 0baf 13bc 135e 0abe
000000e0: 2bc0 1dbe 25fd 463e c35e b33d 2a61 4cbd
000000f0: ee15 4e3e ee30 40be fc0c 373e 1024 7abe
00000100: 1610 7abe 4e50 debd 811a c13d 0167 11be
00000110: 9259 31be 0132 34be 59b0 d3bd 004e 7f3e
00000120: ba44 273e ee44 a9bc 734f 1b3e 29f7 f6bd
00000130: 3ea3 abbc 0256 64be 116d 07be c958 0bbe
00000140: 9df3 85bc 5684 9c3d f065 c1bd f55f c3bc
00000150: 2667 b7bd fee7 90bd 970c 0d3e 760f ebbd
00000160: dd0b e6bd 5070 2a3e b20d d6bc ebcb 50be
00000170: 8b15 f6bd 224e e33d d3b9 3c3e bfef 883d
00000180: 1b6c 013d 689b 163e c317 1cbd a709 053e
00000190: d247 80bd b569 b63c e6ad 28bd 07dd 263e
000001a0: e966 e1bd ab0c f43d a242 65bd 0006 02be
000001b0: aab7 df3d 57d0 193c 4fef 4dbe 83c6 2d3d
000001c0: 8556 003e bd34 f9bd 457c 333d 8685 babd
000001d0: 8ccf 4f3d 8f40 cebd 48d1 b7bc f8c2 8e3d
000001e0: c80d df3d 5d9c 583c ba9d 163e cb9a f1bd
000001f0: d82f 3b3e 5e62 853c 7026 463e 05f0 b4bd
00000200: 4c7a 483d 94c0 1abe 5a5d b6ba 1600 b03c
00000210: b805 bbbd c8fa 463d f081 e73d 667d a83d
00000220: 89b0 d63d 04b9 98bb bb05 133e c2df 353e
00000230: abf6 8d3d 4fca 14bd 1c6a 9bbd 47a2 66be
00000240: f8e0 f7bd 0626 9cbd 0ef0 6bbe 5d7e f43d
00000250: cb8f 0abe 6b7d f6bd 53de cd3b 2136 243e
00000260: dff2 0cbe 8915 94bd 8954 fe3d 756f 1d3e
00000270: 1a8a 6e3d 4c38 97bd 2bc7 083e 27f8 853d
00000280: ed43 3f3e 6bc1 afbd c08e 053d 8103 f0bd
00000290: 3a63 553d 4918 abbd c5e4 913c 688a 9fbc
000002a0: 2953 343b 1a77 52be 6a91 103e 0083 a9bd
000002b0: e4f2 c7bd 4da0 45be 1b5e 323e dc94 f7bd
000002c0: f83c ea3c ef87 bc3d 435b 2dbd b044 cf3c
000002d0: 6269 f9bd bd97 97bd b172 4a3e 2e00 d73d
000002e0: e05f b7bc d0a2 b03c b293 183c 4edd 06be
000002f0: 8d1d 27be dccb 363e 7ef7 8bbd b774 64bc
00000300: fa86 f0bd 6ec1 c93c fcd5 a8bd bc21 12be
00000310: f5bf 03be addd 99bd ae17 4e3e 0439 033e
00000320: faf8 963d acc9 01be 71c3 ea3d 18b5 cb3c
00000330: 1e20 da3b bdd7 4bbe e5e0 09be f239 6c3c
00000340: 1239 20be a2e9 e5bd 8518 9a3d bb23 133e
00000350: 7438 bebd cfc0 153e b1c8 0cbe 69eb 2f3d
00000360: 3dbd fabd 4e95 ac3d 918e 1a3e f1ae 1b3e
00000370: eebb 35be 21e2 303e 0370 81bd 6afd 223e
00000380: 646c ebbd fba2 05be 7c00 c3bd 456b eb3d
00000390: ac31 afbc 4a3a ccbd 6786 e2bb 803e c8bc
000003a0: ffaa 57be fd6c 11be 6f84 3a3c 205f b83d
000003b0: b79f 393e bc83 1fbe 84a1 143e 19d1 29be
000003c0: 7879 803d 976a 083e 1367 243e c744 ac3d
000003d0: bff9 b73d 30d1 e53d 9750 8f3c 6fb9 12be
000003e0: ae8b dfbd c01a f53d ef09 f63d 0c4e 463e
000003f0: f63e 5a3e 9f27 06be 7c78 d53d e815 0bbe
0.032707892 0.19887248 -0.061298154 0.11891723 0.07101742 0.014878595 -0.028510857 -0.2068275
-0.105883986 -0.043823324 -0.21573295 0.1444072 -0.046852138 -0.07860585 0.077723496 -0.101219416
0.1255838 0.029670928 -0.094738655 0.009237763 0.15520382 -0.15719117 -0.18727925 -0.015682947
-0.22135589 0.1458809 -0.09681951 -0.16448052 0.15728231 0.03050184 0.07486699 0.2737809
0.17552377 0.17416945 0.24763481 0.09109786 -0.20329294 0.15934484 -0.07614887 -0.10438414
0.051784262 -0.23388103 -0.1535154 -0.14106539 0.0070323357 -0.05351102 -0.09509678 -0.10253427
-0.07337277 -0.15291633 0.09951608 -0.026190156 -0.11195238 -0.06058541 -0.009013901 -0.13512449
-0.15405338 0.19432504 0.08758309 -0.04989735 0.20125553 -0.18768665 0.17876047 -0.24427819
-0.24420199 -0.10855161 0.09428883 -0.14199449 -0.17319325 -0.175972 -0.1033637 0.24932098
0.16334811 -0.020662751 0.15167026 -0.12058861 -0.020951863 -0.22298434 -0.132252 -0.13608088
-0.016351515 0.076424286 -0.09443271 -0.023849467 -0.08955221 -0.07075499 0.13774334 -0.11477558
-0.112327315 0.16644406 -0.026129577 -0.20390289 -0.12015828 0.11098887 0.18430261 0.06686353
0.031597238 0.1470772 -0.0381086 0.12991963 -0.06263699 0.022267202 -0.041181467 0.16295253
-0.11005957 0.11916479 -0.05597175 -0.12697601 0.10923703 0.009388051 -0.2011082 0.042425644
0.12533005 -0.12168262 0.043819685 -0.09107499 0.05073504 -0.10070907 -0.02243866 0.06970781
0.108913004 0.013220874 0.14708605 -0.117971025 0.1827997 0.016282257 0.193506 -0.088348426
0.048944756 -0.15112525 -0.0013913319 0.021484416 -0.0913195 0.048579007 0.113040805 0.08227043
0.1048289 -0.0046607275 0.14357655 0.17761138 0.06931814 -0.03632575 -0.07588598 -0.22522841
-0.12103456 -0.0762444 -0.23040792 0.119381644 -0.13531415 -0.1203564 0.0062826066 0.16036274
-0.13764523 -0.0723067 0.124184676 0.15374549 0.058237173 -0.07383785 0.13357227 0.06541472
0.18678255 -0.085818134 0.03260684 -0.11719418 0.052096583 -0.083542414 0.017809281 -0.019475177
0.0027515388 -0.20553246 0.14117971 -0.082769394 -0.097631246 -0.19299431 0.17418711 -0.120889395
0.028593525 0.09205615 -0.042323362 0.025301307 -0.12178303 -0.07401989 0.19770314 0.10498081
-0.022384584 0.02156201 0.009312557 -0.13170359 -0.16319866 0.17851204 -0.06834315 -0.013943843
-0.11744495 0.024628367 -0.08243939 -0.14270681 -0.12866195 -0.075129844 0.2012622 0.12814718
0.07371707 -0.12674588 0.11463059 0.024866626 0.0066566607 -0.19906516 -0.13464697 0.014418112
-0.1564677 -0.112262025 0.07524208 0.14369099 -0.09288111 0.14624332 -0.13748433 0.042949114
-0.122431256 0.08426915 0.15093447 0.15203454 -0.1774747 0.17273761 -0.06320193 0.15916982
-0.11495283 -0.13050453 -0.09521577 0.114950694 -0.02138599 -0.09972055 -0.0069129947 -0.024443865
-0.21061324 -0.14201732 0.011384114 0.09002519 0.18127333 -0.15577596 0.14514738 -0.1658367
0.06273168 0.13321911 0.16054945 0.08411556 0.08983182 0.1122154 0.017494483 -0.1432855
-0.10915314 0.11967993 0.120136134 0.1936571 0.2131308 -0.13101052 0.10423371 -0.13582575

fc2.bias f4 [10]
00000000: 5d04 33bc ab21 633e 16b5 523d 259b bcbc
00000010: 97e4 8bbc e289 95bd 0084 5b3d fe2c 0bbe
00000020: f4d8 85bd 8e1d 1f3c
-0.010926333 0.22180812 0.05144223 -0.023023197 -0.017076774 -0.0730169 0.053592682 -0.13591382
-0.06535521 0.009711636

momentum_buffer f4 [10, 1, 5, 5]
00000000: 6c86 f5bb 01e0 173b 5cbd 663c 31c2 993b
00000010: 35d3 1cbc 5893 d9b9 0287 1c3c cc27 4f3c
00000020: e6f5 6f3b c8ae 2d3c c40e 8c3a 10b5 543a
00000030: c62c 1bbc 2014 873b 8afa 093d 2ef9 e6bb
00000040: e600 633b c8fe d0bb 28e1 debb d476 603b
00000050: 364f 9fbb 22b6 87bc 7d21 c4bc ca48 d1bc
00000060: 36f8 8bbc 9660 d6bd 285d e5bd a868 b3bd
00000070: 8ffb b9bd 7fcc ccbd 8c20 d1bd 50f6 84bd
00000080: f883 2bbd dc15 3fbd 35f6 07bd 2f24 30bd
00000090: 7051 cbbc ea9d a0bc c489 ebbc 3bc1 c1bc
000000a0: 211d 91bb 00e4 a5b6 4c6a 613b 6fea 0d3c
000000b0: 0112 013c 3d74 263d aca3 1e3d aae2 cf3c
000000c0: 9e0a 4e3c 6afc e93b 2870 7c3c 408e 813c
000000d0: 6efb 3a3c 3529 9c3b 0824 9039 2ee0 723b
000000e0: 8633 c53a 9bf1 2dbb 659c 22bb 10a6 b1bb
000000f0: e61a 8bba 7ec7 6ebb 32ab 66bb 30d5 4dbb
00000100: a8de 83b9 fc5f 883b 8dc3 ecba 5da0 29bb
00000110: cb8f 38bb 60de 943a 6ce6 ac3a 2c21 6bba
00000120: 9190 13bc d5aa 53ba 8bca 21bb 089f 083b
00000130: 08ab 6bbb 62c9 cc3b f8f3 083c 7c3e d43c
00000140: 3e2e 3b3b 92cc f03b b7f7 d23c d534 803c
00000150: 59f5 0e3d b2ac 113c c3e3 aa3c b0ea a33c
00000160: cb9a 913c 2e8a 8c3c 00ce c6b8 dd7e 2a3c
00000170: 302e bc3a ef51 493c 4fb8 cabb 044c 91bc
00000180: b83b bf3b 00dd b43b 58df 233b 7a4d f4bc
00000190: d73d a4bd f20a 84bd 8e0c cebc b2a3 b2bc
000001a0: 0d2e 15bc 190d 34bd 0298 bfbb 523d 033c
000001b0: f4bf 0d3c 8848 aa3b fac1 05bd 8d49 0bbc
000001c0: a753 743c b7d9 9b3c 978e e43b fd7d d8bc
000001d0: 6537 b1bc 9058 81bb e06e 26bb c16e 13bd
000001e0: 0870 d6bc e293 f7bc 08e2 01bd 1b06 3cbd
000001f0: 4285 93bd a512 86bc d183 bcbc 347a 39bc
00000200: d81d 6cbb e5f1 353c 9426 d63b 3edb ed3b
00000210: 5b52 1d3c 9f30 213c 2f73 373c e011 eb3c
00000220: efbb ea3c 0413 5f3c 3026 d63b a0d5 523c
00000230: fbb2 173d ec59 c33c 1c54 183b b8c1 493b
00000240: c295 6c3c 8448 853c e62e d5bb 455a e1bb
00000250: afec 1d3c 874e 3e3c f1f9 f13b fb0e 263d
00000260: 8a47 323d 700c bd3b c81f 91bc 6bd9 793c
00000270: 9651 323c c097 4f3c 0e13 58bc 96f8 31bd
00000280: ec2b 38bc ce04 363c c6c5 883c 0040 1bb9
00000290: 636f 97bc de57 1a3d 602c 363d 8db2 993c
000002a0: 9291 6cbc 6e82 98bb 9c19 3e3d ee17 123d
000002b0: c034 be3a c0a6 5838 6e1b 4ebc 89b7 37bd
000002c0: 15e7 25bd beba 03bd c8e7 eebc ae58 9dbc
000002d0: 9381 b0bc 6955 9ebc d4fc b3ba e8a6 96bb
000002e0: 3bc0 a6ba c0f6 a3bc 931c 76bc 7cef c2bb
000002f0: a4fc 493b f562 ae3c 872e 38bc 1ef4 0fbc
00000300: 9059 913b b982 413c aee7 aa3c ca99 16bc
00000310: 340d aa3b 2553 b73c 464e dc3c 5279 913c
00000320: b11c 3fbc b6ba 22bc 3dc0 223b f07b a5bb
00000330: a108 b5bc 6415 febb de49 74bc 5e6a 80bc
00000340: cb7b b2bc ba47 dfbc 582d eabb dfb8 44bc
00000350: 9a14 60bc 9724 06bc 7e8b ebbb 40a6 f538
00000360: e01e 55bb f021 853a 6cd5 1c3c fc0e cf3b
00000370: 4946 b4bb c1da 8abb 68c0 f53b a81e 893c
00000380: b15f 613c e247 8bbc ebbd 9bbc c013 9ebc
00000390: 8c96 89bc 0a48 44bc 9ac3 03bd d2a9 13bd
000003a0: cf34 febc 059e 77bc 5857 443b d6c5 9fbc
000003b0: f1bd 33bc c747 b73b a6da fd3b 67c2 813c
000003c0: 3164 a83c e054 e03c 60d6 0c3d b18a 1f3d
000003d0: adb6 4c3d ca1e 193d 93a4 3b3d 4f21 523d
000003e0: ca61 323d 2809 3b3d
-0.007492831 0.0023174288 0.014083233 0.004692339 -0.00957184 -0.00041499245 0.009553673 0.012643766
0.0036615073 0.010600753 0.0010685553 0.00081141386 -0.009471124 0.004122272 0.0336862 -0.0070487475
0.0034637987 -0.0063780285 -0.006801743 0.0034250515 -0.0048617376 -0.01656634 -0.02394175 -0.025547404
-0.01708613 -0.10467641 -0.11199409 -0.08760196 -0.09081184 -0.09999942 -0.10211286 -0.06492293
-0.041873902 -0.046651706 -0.033193786 -0.043003257 -0.024819106 -0.01960655 -0.028752215 -0.02365171
-0.0044285213 -4.943926e-06 0.0034395633 0.00866185 0.007877828 0.040638197 0.03873031 0.025376637
0.0125757735 0.007140686 0.0154075995 0.0158149 0.011412485 0.0047656544 0.00027492666 0.003705989
0.0015045262 -0.0026541713 -0.0024812457 -0.0054214075 -0.0010612875 -0.0036434825 -0.0035197255 -0.0031407587
-0.0002515216 0.004161833 -0.001806365 -0.0025882937 -0.002816188 0.0011357777 0.001319123 -0.00089694816
-0.009006635 -0.0008074467 -0.0024687375 0.0020846743 -0.0035960097 0.0062495926 0.008358948 0.025908701
0.0028561498 0.0073486054 0.025752885 0.015650192 0.03490195 0.008891271 0.020860558 0.020009369
0.017774006 0.017155733 -9.479746e-05 0.010406223 0.0014357027 0.012287601 -0.006186522 -0.017736442
0.0058359765 0.0055195093 0.002500495 -0.0298221 -0.080196075 -0.064474 -0.02515247 -0.021806572
-0.009105218 -0.043957803 -0.005846978 0.008010225 0.008651722 0.0051966347 -0.032655694 -0.008501423
0.014912522 0.019024713 0.006975006 -0.026427263 -0.02163286 -0.003947325 -0.0025395676 -0.035994295
-0.026176468 -0.030221883 -0.0317097 -0.04590426 -0.07203151 -0.016366312 -0.023012074 -0.011320639
-0.003602853 0.011105035 0.0065353606 0.0072588017 0.009602155 0.009838252 0.0111968955 0.028695047
0.028654067 0.0136153735 0.006535314 0.012868315 0.037035923 0.023846589 0.0023243492 0.0030785631
0.014440002 0.01626993 -0.006505835 -0.006877216 0.009638949 0.011615402 0.0073845317 0.04054163
0.043525256 0.005769305 -0.01771535 0.01524959 0.010883709 0.012670457 -0.013188137 -0.04344996
-0.011240941 0.011109544 0.016695868 -0.00014805794 -0.01848573 0.037681453 0.044475913 0.018761897
-0.014439004 -0.0046542203 0.04641114 0.035667352 0.001451157 5.165371e-05 -0.012579782 -0.044852767
-0.04050358 -0.032160513 -0.029163256 -0.019207325 -0.02154616 -0.019327836 -0.0013731965 -0.0045975335
-0.0012722084 -0.02001512 -0.015021461 -0.005948959 0.0030820752 0.02128742 -0.011241562 -0.008786229
0.0044357255 0.011810952 0.020862427 -0.00919194 0.005189562 0.022378514 0.026892792 0.017758045
-0.011664555 -0.009932211 0.0024833821 -0.005050175 -0.022098841 -0.007754015 -0.014910189 -0.01567572
-0.021787545 -0.027255882 -0.0071465187 -0.012006967 -0.013676787 -0.008187435 -0.0071882596 0.00011713477
-0.0032519624 0.0010157209 0.009572368 0.006318925 -0.0055015427 -0.0042375033 0.0074997433 0.01673825
0.013755725 -0.01700205 -0.019011458 -0.019296527 -0.01679542 -0.011980066 -0.032168962 -0.036050625
-0.03103104 -0.015113358 0.0029959287 -0.019503515 -0.0109705785 0.0055932733 0.007747012 0.015839769
0.020555587 0.027384222 0.03438413 0.038950626 0.0499789 0.03738288 0.045811247 0.051301297
0.04355029 0.04566303

momentum_buffer f4 [10]
00000000: 6537 d3bb 18e1 e3bc dc25 263c 4c81 9d3b
00000010: 1c51 20bd 3bfc c8bb 52cb febb cca9 c3bb
00000020: db2c 15bc e6b2 f63a
-0.0064458125 -0.027817294 0.010140862 0.004806673 -0.039139852 -0.006133584 -0.0077757025 -0.005971169
-0.009104933 0.0018821626

momentum_buffer f4 [20, 10, 5, 5]
00000000: 4942 ecb6 7803 e8b7 053b 78b8 706f 11b8
00000010: ff50 173a 8ebe a0b6 9935 adb6 7018 0e34
00000020: 865d 2fb7 c201 083b 5189 adb7 3192 fb37
00000030: b78d d536 5c8f b73b 89af 6b3c b97f 4239
00000040: 4466 d639 d5ed 043c 8215 7d3c 01f5 663c
00000050: 9d29 1e39 d94b a63b 049a 733c 54a4 8e3c
00000060: 92cd cb3b 34e8 c43b 045e c439 7ee6 cab7
00000070: 943a 8a38 8a40 99ba 20f3 b93a 12e4 2db6
00000080: 71f5 0eb8 d89d 97b8 8cb0 0a3b 2e9b 9534
00000090: 65a9 b936 648d 5ab8 14cd 2f3c 00b7 563c
000000a0: 3a17 f038 429b 1e3a a70f 583c ac76 8b3c
000000b0: a30d 303c 3001 64b9 4924 083c 602a 983c
000000c0: c9fa cb3c 9fc8 d73c 04eb 533b b398 613b
000000d0: 82d7 503b ade2 5c3b 9392 553b b0e7 683b
000000e0: f59c 523b 5144 523b 3d02 4d3b 62a9 873b
000000f0: 6830 523b 7ddb 553b 842b 503b d804 c03b
00000100: 6cb8 6a3b 4961 523b b1d4 5a3b f8dd c53b
00000110: 20fa bb3b 5815 63b9 499d 4c3b e920 8f3b
00000120: ac80 bc3b 8018 79b7 33d4 d13a 3538 b1b7
00000130: 0d70 09b8 b5c7 ccb8 c1ec 73b9 8024 bb39
00000140: adbc 79b7 82b8 8fb7 c443 7cb6 ae64 0ab9
00000150: 9a7d a13b 1e95 68b5 51d3 8638 2a90 0a39
00000160: 63de 043c 6c01 363c de72 5339 44b5 803a
00000170: ab87 3c3c 3fac 573c 32c2 b53b 00c2 4a36
00000180: 9e68 363c 6d75 a13c 483b 143c 8c96 0bba
00000190: 5fc6 96b8 80d3 8636 97ef e5b7 6f17 85b7
000001a0: 5105 7db9 2564 3e39 ab0f 722b be06 0eb0
000001b0: b57a 58b9 b732 183b af77 82b7 f52c 7438
000001c0: 6d50 a73a aefa 323c 6aee 723c 6e9b c138
000001d0: 8dc2 c63a 9b19 163c 7a01 6e3c 2510 743c
000001e0: 90d8 22b9 2b1f b73b a3ad d53c 8924 ea3c
000001f0: 286b 8e3c d390 8a3b 0770 d739 da22 de37
00000200: ea1e 88b9 c1eb 0dba c2eb 6b3a 05c0 bab7
00000210: 893a d9b7 d8c1 d037 065b 8f39 bc35 87b6
00000220: 76a3 ecb5 d36f dd34 529b 6db4 2030 8639
00000230: 0169 0fb8 9409 5d2d 1c04 2d37 324d 723b
00000240: 67c1 733c f896 ae38 86a5 8139 c7ee 883b
00000250: 3077 6d3c 05bb 603c e58b f03b 9893 c5b8
00000260: a267 c0b6 5fe2 b7b9 41ea 0cba 90bf 5eb8
00000270: 66d1 32b8 f4df 6ab8 62dd d738 f6b4 afb8
00000280: 0fb8 9a2c cfbc c0b6 591f a9b4 1fda dcb4
00000290: 5855 98ba 9bd3 44b8 2320 4738 d274 8639
000002a0: 8a9c 133c bdf5 db3c bad7 3837 afbd 0239
000002b0: f39c 6b3c 2baa 0a3d 7fd6 ca3c c46d f8b6
000002c0: 9895 f4b7 ecc0 b3b7 760e 8139 f03b fcb8
000002d0: f735 98b6 0063 7b24 262e 3ab1 b5df 08b9
000002e0: 21c1 2f3b 44c0 cfb7 172f ac38 823a ea39
000002f0: b749 233c 3124 733c 9a72 1639 2244 a43a
00000300: e3e5 363c 2512 833c d32c 723c 6c52 22b9
00000310: db30 fa3b cf4b 953c 8986 843c 9947 3d3c
00000320: dd55 883b ab93 0e3b eac0 78b6 1d0c 2d37
00000330: 7120 19ba d703 223b a2a3 89b7 c216 fdb7
00000340: 5c4f fcb7 9865 8a38 3249 1db8 0377 3bb6
00000350: 832e e3b6 c4b0 d3b5 483c e9b6 ad47 cab7
00000360: 1032 3438 4751 c438 3124 9b38 1418 cb39
00000370: 1651 00b9 02e9 0738 bd0c e138 163d c83b
00000380: a490 673c 7365 823a 0641 883a 33fa be37
00000390: 1bbc 6ab9 a1a6 f3b9 4bae 7c3a d092 b0b7
000003a0: 9aa7 86b7 a50a 01b9 4a91 963a 9489 a5b7
000003b0: e75b cc36 1dde 413a 480a ca3b b4da 7f3b
000003c0: 9864 9938 a8bc 9e3a 1262 b43b baef 913b
000003d0: 8a86 b13a 2709 45b9 5099 723b 218f 243c
000003e0: 7874 243c 4e44 153c c32b 023c 29aa 1a3c
000003f0: ac98 c03b f473 4fba f419 9abb 19d4 173c
-7.0410647e-06 -2.765817e-05 -5.9182774e-05 -3.467448e-05 0.0005772262 -4.790555e-06 -5.1620414e-06 1.3233671e-07
-1.0452588e-05 0.0020753 -2.068715e-05 2.9989607e-05 6.3643924e-06 0.0056018066 0.014385113 0.00018548862
0.00040893455 0.008113344 0.015447022 0.014096499 0.00015083556 0.0050749597 0.014868263 0.017412342
0.0062195743 0.006009126 0.0003745408 -2.4187608e-05 6.591264e-05 -0.0011692208 0.0014186837 -2.5911763e-06
-3.4084023e-05 -7.229642e-05 0.002116236 2.786632e-07 5.5331498e-06 -5.210693e-05 0.010730047 0.013105154
0.00011448418 0.0006050357 0.013187326 0.01702436 0.010745439 -0.00021744217 0.008309432 0.018574893
0.024899857 0.02634078 0.0032336125 0.0034423291 0.0031866734 0.0033704445 0.0032588586 0.0035538487
0.003213701 0.0032084177 0.0031281852 0.004140065 0.003207231 0.0032632046 0.0031764219 0.0058599524
0.003581549 0.0032101444 0.0033390934 0.0060384236 0.0057366043 -0.00021656358 0.003122168 0.004367937
0.0057526436 -1.4847261e-05 0.0016008675 -2.1126218e-05 -3.27677e-05 -9.764676e-05 -0.00023262484 0.00035694614
-1.4885486e-05 -1.7132847e-05 -3.759037e-06 -0.00013198212 0.004928303 -8.664373e-07 6.428979e-05 0.00013214411
0.008109662 0.011108737 0.0002016532 0.0009819646 0.011506955 0.013163625 0.0055468315 3.0213268e-06
0.011133341 0.019709313 0.009047337 -0.00053248624 -7.189507e-05 4.018133e-06 -2.7410495e-05 -1.5865748e-05
-0.0002412994 0.00018157119 8.5997415e-13 -5.166888e-10 -0.00020645077 0.0023223588 -1.555294e-05 5.8216003e-05
0.0012765058 0.0109240245 0.01482735 9.231908e-05 0.0015164182 0.009161378 0.014526719 0.014896427
-0.000155302 0.0055884323 0.026083773 0.028581874 0.01738508 0.00422869 0.00041091462 2.6480691e-05
-0.00025962974 -0.0005413853 0.0008999669 -2.2262344e-05 -2.5895673e-05 2.4885798e-05 0.00027342903 -4.029569e-06
-1.7630944e-06 4.124582e-07 -2.212885e-07 0.00025594328 -3.419165e-05 1.2564522e-11 1.031256e-05 0.0036972282
0.014877654 8.325087e-05 0.00024728122 0.004178855 0.014493749 0.013716464 0.0073408955 -9.4211835e-05
-5.7341103e-06 -0.0003507314 -0.0005375483 -5.310733e-05 -4.2633525e-05 -5.599852e-05 0.00010293235 -8.378357e-05
4.397378e-12 -5.744026e-06 -3.1501511e-07 -4.1136897e-07 -0.0011622114 -4.6927114e-05 4.7475227e-05 0.0002564551
0.00900949 0.026850576 1.1017482e-05 0.00012468429 0.014380681 0.03385369 0.024760483 -7.4037544e-06
-2.9156727e-05 -2.1428299e-05 0.00024615572 -0.000120274606 -4.5362353e-06 5.4510805e-17 -2.7092795e-09 -0.00013053308
0.0026817995 -2.4765854e-05 8.21037e-05 0.0004467555 0.009966305 0.014840172 0.00014347807 0.0012532512
0.011163208 0.015999863 0.014781195 -0.00015480228 0.0076352186 0.018224625 0.016177433 0.011552715
0.0041606263 0.0021755497 -3.706717e-06 1.0314424e-05 -0.0005841321 0.0024721527 -1.640787e-05 -3.0170548e-05
-3.0077696e-05 6.599276e-05 -3.7499885e-05 -2.7934445e-06 -6.770542e-06 -1.5772171e-06 -6.950959e-06 -2.4113653e-05
4.296197e-05 9.3611474e-05 7.397717e-05 0.00038737117 -0.00012237238 3.2403514e-05 0.00010731209 0.0061107976
0.014133606 0.0009948447 0.0010395355 2.2766273e-05 -0.00022386054 -0.0004647272 0.0009639009 -2.10492e-05
-1.605209e-05 -0.00012306364 0.0011487391 -1.9733598e-05 6.0903726e-06 0.0007395463 0.0061657764 0.003904027
7.3143456e-05 0.0012110667 0.005504855 0.0044536265 0.0013544124 -0.00018790794 0.003701765 0.01004389
0.010037534 0.009110523 0.007945004 0.009439983 0.005877575 -0.00079137017 -0.004702801 0.009266877

momentum_buffer f4 [20]
00000000: 80d3 e13b 8293 b7bb 2eaa 7bbc f620 e8bb
00000010: b201 a5bc 8ea1 ac3c e0e9 5c3b fa16 02bb
00000020: cb59 aebb 486d 4b3c 8aa8 e8bb b283 63bb
00000030: 86ef c23b 3dcb 073c 4509 b9ba bf3a 913c
00000040: 3f59 8d3b 0585 683b 2e4f 07bb 3095 c039
0.006891668 -0.005602301 -0.015360398 -0.0070840074 -0.02014241 0.021073129 0.0033708736 -0.001985012
-0.0053207627 0.012416191 -0.0071001695 -0.0034715948 0.0059489636 0.008288202 -0.0014117142 0.017728208
0.0043136175 0.0035479676 -0.002064656 0.00036732247

momentum_buffer f4 [50, 320]
00000000: 549f 06b0 0000 0000 0000 0000 20ea 2d96
00000010: 72e5 ae38 0000 0000 0000 0000 2379 8f96
00000020: d185 8b33 94cc 6fa7 0000 0000 0000 0000
00000030: 60ac 2734 b9d0 1aa6 532c 6b10 0000 0000
00000040: aef5 a43a 97a3 153b 0b9e c43a d850 3f39
00000050: f69e 0e37 2064 4f38 20c0 3fb2 978d 6035
00000060: 5997 173b 6e8a 1c3b 1190 1839 544f 68af
00000070: dfc3 6137 e2c7 9039 5895 0536 d5c9 6b39
00000080: addf 203a 7abb 463a d2c7 b635 6b78 9936
00000090: a892 553a 0cab 653a 7c27 583a 1eeb 0c39
000000a0: 510c 8e39 1eff 7f3a a4fb 0f3b 2f28 6839
000000b0: dd73 0c3b 62af 523a 9fac 073a 988d c539
000000c0: 4a68 593a fd45 e63a 25fc 7c3a 5b8a a13a
000000d0: a555 603b 8bc5 a33b 19bc 833a f943 433a
000000e0: 62e6 633b 007f 633b e0c0 9338 f2c0 eb36
000000f0: 500b 0ab9 98af 3f37 1c25 a639 a850 9f38
00000100: 2841 8b39 3f49 8739 6a12 a83a 2ac3 133b
00000110: 6fa2 4239 0a8b b8b8 ef72 1c3b a76d 583b
00000120: 313e 4139 eb99 d03a 279e b23a 932c cb3a
00000130: d967 2f3a 35dc ec3a 6282 1c3a 3bd9 8139
00000140: 7832 35b7 a1f7 f9b7 dd68 c3b7 088a 40b8
00000150: dabf 5fb7 f78e 78b8 9d54 00b8 d704 59b8
00000160: f51e 4bb8 53c1 cab8 5ac0 20b8 5c8b 21b8
00000170: 62fb a9b1 28e0 cfb7 dde2 35b8 5fb1 ecb7
00000180: 8ad8 c137 b9bd 1239 ff40 903a 5ac2 0c38
00000190: 6817 4139 d47d 693a 3a3b 923a 2b88 0139
000001a0: 6e8e 8439 189a f839 1975 4639 0369 d73a
000001b0: 873a 0c3b 4bac 2b3b 77da cb3a cedc dc3a
000001c0: 2ab3 2836 2574 0bb3 a350 8035 82bb df34
000001d0: 41b7 e936 245f 9236 9ceb b635 d20a 9c26
000001e0: cda0 c336 13dc 2a36 79b8 0034 fc66 2b35
000001f0: c833 e435 63ca 2736 fe11 8236 6d4d a436
00000200: 8c8a 5d3a 0a1e 173a 3c08 15b9 92a0 2a39
00000210: de4c 2a3a cee7 82b7 b3ec 5339 5fb6 80b8
00000220: 4cc8 28b9 2506 403a a7f5 e539 4b10 3f35
00000230: d849 df39 3850 d4b7 363b 6c35 3af8 9e35
00000240: 6ba1 9036 4331 8235 0c3e 2538 7a2e 023a
00000250: 52dd 8b38 15f0 ac34 3445 0035 e4e5 4332
00000260: 99d0 4b39 79bb c236 fae4 ee3a c22b ba3a
00000270: 9a9e f83a ac22 443b ca39 173b 7534 263a
00000280: 55fc 293a 9878 e238 2c2c 1439 3b8d 163a
00000290: 3de5 163b d0e8 953b c7ef 763b 30ab 8438
000002a0: 8914 1239 e20b 7b39 9880 233a f2dc 5d37
000002b0: e2fe 903b adc0 643b 5e1f d03a a2b3 3b3a
000002c0: 8e71 35b9 70bd 9a37 6c20 5839 a329 7f39
000002d0: a8ff 2f38 20b2 61b6 524b 6fb8 005c 3bb5
000002e0: c724 8d37 e4d6 abb9 715a d0b9 de2a b7b9
000002f0: 8677 1d38 1691 f2b8 029b 23b9 897f 29b8
00000300: fe47 6439 0098 a337 8284 3ab9 8411 d039
00000310: e720 53b9 5fbb 10ba 6c68 a3b8 8d74 9e39
00000320: 9214 a839 128e ee38 5522 b536 e4cd ef38
00000330: 939a 073a e9b2 af3a 039a 383a f86c 0eb8
00000340: 86a8 833a 562b 723b 7844 773b 3057 3e3b
00000350: fc4a 9e3a fcf3 f13a 7489 b23a b89c 1d3a
00000360: 4a86 103b 9ba2 a73a 04e5 a33a 514b 713a
00000370: 27df b139 4cae 5f36 ca53 073a 1fff 5d38
00000380: 0000 0000 2c21 1ba4 80f1 0593 fc7a c836
00000390: eb65 8a22 38df 2f2e 9168 ceb5 29f7 d0b8
000003a0: 33f3 1221 5ddd 6faf a5bc 55ae 3439 e6b0
000003b0: 769f 0f37 b6c7 8936 f8c7 06b2 fc0b 9d34
000003c0: 3ba2 5b3a fb53 88b3 ae52 0d3b decc f83a
000003d0: e50a be39 f02e e437 7c01 063b d9d0 0e3b
000003e0: 5e33 6f31 2ed9 d63a ec11 b23a 56fa 003b
000003f0: bfc7 5f30 7f10 3b33 b4ab c7b7 11d0 6c3b
-4.8975335e-10 0.0 0.0 -1.4048706e-25 8.339704e-05 0.0 0.0 -2.3179344e-25
6.497033e-08 -3.3278815e-15 0.0 0.0 1.5615797e-07 -5.3712355e-16 4.6379724e-29 0.0
0.0012585425 0.0022833103 0.0015000714 0.00018245296 8.5008705e-06 4.9445895e-05 -1.1161347e-08 8.3652543e-07
0.0023130982 0.0023886221 0.00014549519 -2.112846e-10 1.345665e-05 0.00027614745 1.9905474e-06 0.00022486535
0.0006136846 0.0007581037 1.3618212e-06 4.573774e-06 0.00081471587 0.00087611447 0.000824563 0.00013439028
0.00027093527 0.00097654935 0.0021970058 0.00022140214 0.0021431365 0.00080369983 0.0005175564 0.00037680264
0.00082934333 0.0017568466 0.00096506096 0.0012324558 0.0034230736 0.004997914 0.0010050564 0.00074487884
0.003477477 0.003471315 7.045432e-05 7.0260076e-06 -0.0001316492 1.1425371e-05 0.00031689636 7.596734e-05
0.0002656069 0.0002580378 0.0012822871 0.0022546747 0.00018561793 -8.799702e-05 0.0023872217 0.0033024342
0.00018429082 0.0015915012 0.0013627455 0.0015500955 0.0006691195 0.0018070998 0.0005970356 0.00024766647
-1.0800191e-05 -2.9798424e-05 -2.3294642e-05 -4.590492e-05 -1.3336505e-05 -5.9260954e-05 -3.059638e-05 -5.174134e-05
-4.8427803e-05 -9.66812e-05 -3.8326114e-05 -3.851518e-05 -4.9471263e-09 -2.4780704e-05 -4.3365046e-05 -2.8215987e-05
2.3108227e-05 0.00013994322 0.0011005698 3.3559605e-05 0.00018414634 0.00089069945 0.0011156567 0.00012353125
0.0002528312 0.00047417055 0.00018926374 0.0016434494 0.002139719 0.0026195224 0.0015552778 0.0016850473
2.5138238e-06 -3.2469092e-08 9.560212e-07 4.1673417e-07 6.9652747e-06 4.362215e-06 1.3628628e-06 1.0827607e-15
5.8301725e-06 2.5460074e-06 1.198804e-07 6.3852326e-07 1.7002394e-06 2.5002744e-06 3.8763965e-06 4.8965944e-06
0.0008451126 0.0005764669 -0.00014212815 0.0001627228 0.00064964395 -1.560515e-05 0.00020210705 -6.137485e-05
-0.00016096345 0.00073251344 0.0004386131 7.1176754e-07 0.00042588892 -2.5309724e-05 8.8003014e-07 1.1844161e-06
4.310326e-06 9.700092e-07 3.939685e-05 0.0004966032 6.6692606e-05 3.221218e-07 4.778442e-07 1.1402765e-08
0.00019437297 5.8034752e-06 0.0018226199 0.0014203715 0.0018968165 0.0029927893 0.0023075216 0.0006340214
0.0006484439 0.00010798982 0.00014130835 0.0005743091 0.002302482 0.0045748726 0.003767954 6.326137e-05
0.00013931295 0.00023941652 0.00062371185 1.3224069e-05 0.0044249156 0.0034904883 0.0015878489 0.0007160251
-0.00017303808 1.8446444e-05 0.00020611443 0.00024334206 4.196135e-05 -3.3631295e-06 -5.7052188e-05 -6.9796806e-07
1.6825636e-05 -0.00032775768 -0.00039740236 -0.00034936419 3.754303e-05 -0.000115664836 -0.00015602636 -4.0411516e-05
0.00021770594 1.9501895e-05 -0.00017787705 0.00039685902 -0.00020134785 -0.00055210845 -7.791896e-05 0.00030222945
0.00032058783 0.00011375187 5.398217e-06 0.00011434758 0.00051728747 0.001340476 0.00070419925 -3.3956923e-05
0.0010044731 0.00369521 0.003773002 0.0029043667 0.001207679 0.0018459554 0.0013621286 0.00060124276
0.0022052699 0.0012789549 0.0012504165 0.00092046434 0.00033926332 3.3331044e-06 0.0005162327 5.2928106e-05
0.0 -3.3638365e-17 -1.6906029e-27 5.9747817e-06 3.7512885e-18 3.998865e-11 -1.5378629e-06 -9.96425e-05
4.9788596e-19 -2.1815567e-10 -4.8598143e-11 -1.6750961e-09 8.560592e-06 4.1061676e-06 -7.845294e-09 2.925225e-07
0.0008378361 -6.3482695e-08 0.0021564174 0.0018981954 0.0003624774 2.7201575e-05 0.0020447662 0.0021791963
3.4808276e-09 0.0016391629 0.0013585663 0.0019680462 8.1410784e-10 4.3554333e-08 -2.3802604e-05 0.003613476

momentum_buffer f4 [50]
00000000: ce5e 043a 14b8 4c3a b18a fa3b c6e3 ebbb
00000010: 16c3 86ba a43f adbc 31d2 663b 69ca 1bbb
00000020: 1852 b9bb d1d5 32bc 504c 96bc 28b7 d63c
00000030: 7ce3 9fbc 1b7a 89bc 9084 f63b c415 0e3c
00000040: 9011 343b a9ed 6b3c 1a21 a3bb cae2 94ba
00000050: ee78 0dbc 5e74 383c e106 01bd 802d 0fbd
00000060: c64f bbbc 6958 f03c 23f1 703c 2a93 74bb
00000070: e0bd 2b39 2e50 bcbb 9fbd 3f39 1df4 a13b
00000080: 5308 e639 9590 ea3c 80ca 70b8 6ab9 3d3a
00000090: 59a7 77bb 0a85 bc3c d061 25ba 2dc1 6abc
000000a0: 32aa 1039 96de f73a 683a 263c c5b8 963c
000000b0: 6202 c7bb 5a9d 073c beed 93bb ed3a 023d
000000c0: 2e14 9d3a 4f75 f8bb
0.00050495274 0.0007809412 0.007645928 -0.0071987836 -0.0010281529 -0.02114851 0.0035220499 -0.002377177
-0.0056555383 -0.010915236 -0.018346936 0.026210383 -0.019517653 -0.016781857 0.007523127 0.0086721815
0.0027476288 0.014399924 -0.0049783112 -0.0011359092 -0.008634789 0.011258213 -0.0315007 -0.0349555
-0.022865187 0.029339032 0.014705929 -0.0037319162 0.00016378565 -0.005746863 0.00018285819 0.0049424306
0.0004387522 0.028633395 -5.740905e-05 0.00072374067 -0.0037788956 0.023012657 -0.00063088257 -0.014328283
0.00013796313 0.001891094 0.010145761 0.018398652 -0.006073282 0.008277262 -0.004514425 0.031794477
0.0011984163 -0.0075823436
